…
[2021-06-23 11:53:42,659][preprocess.py][line:89][INFO] load src_vocab from ./checkpoints/vocabs/en-src_vocab.pkl
[2021-06-23 11:53:42,786][preprocess.py][line:97][INFO] load tgt_vocab from ./checkpoints/vocabs/zh-tgt_vocab.pkl
[2021-06-23 11:53:42,788][preprocess.py][line:109][INFO] train and val data cache alreadly existed
[2021-06-23 11:53:42,789][preprocess.py][line:111][INFO] src vocab size:24454 tgt vocab size:6870 train examples:282305 val examples:31368
[2021-06-23 11:53:53,846][train.py][line:264][INFO] ==== Model Structure: =====
[2021-06-23 11:53:53,856][train.py][line:265][INFO] Transformer(
  (encoder): Encoder(
    (src_emb): Embedding(24454, 512, padding_idx=1)
    (pos_enc): PosEncoding()
    (dropout): Dropout(p=0.1, inplace=False)
    (layers): ModuleList(
      (0): EncoderLayer(
        (enc_MHA): MultiHeadAttention(
          (Wq): Linear(in_features=512, out_features=512, bias=True)
          (Wk): Linear(in_features=512, out_features=512, bias=True)
          (Wv): Linear(in_features=512, out_features=512, bias=True)
          (attention): ScaledDotProductAttention(
            (dropout): Dropout(p=0.1, inplace=False)
          )
          (dropout): Dropout(p=0.1, inplace=False)
          (project): Linear(in_features=512, out_features=512, bias=True)
          (norm): LayerNorm()
        )
        (FFN): FFN(
          (ffn): Sequential(
            (0): Linear(in_features=512, out_features=2048, bias=True)
            (1): ReLU()
            (2): Dropout(p=0.1, inplace=False)
            (3): Linear(in_features=2048, out_features=512, bias=True)
          )
          (dropout): Dropout(p=0.1, inplace=False)
          (norm): LayerNorm()
        )
      )
      (1): EncoderLayer(
        (enc_MHA): MultiHeadAttention(
          (Wq): Linear(in_features=512, out_features=512, bias=True)
          (Wk): Linear(in_features=512, out_features=512, bias=True)
          (Wv): Linear(in_features=512, out_features=512, bias=True)
          (attention): ScaledDotProductAttention(
            (dropout): Dropout(p=0.1, inplace=False)
          )
          (dropout): Dropout(p=0.1, inplace=False)
          (project): Linear(in_features=512, out_features=512, bias=True)
          (norm): LayerNorm()
        )
        (FFN): FFN(
          (ffn): Sequential(
            (0): Linear(in_features=512, out_features=2048, bias=True)
            (1): ReLU()
            (2): Dropout(p=0.1, inplace=False)
            (3): Linear(in_features=2048, out_features=512, bias=True)
          )
          (dropout): Dropout(p=0.1, inplace=False)
          (norm): LayerNorm()
        )
      )
      (2): EncoderLayer(
        (enc_MHA): MultiHeadAttention(
          (Wq): Linear(in_features=512, out_features=512, bias=True)
          (Wk): Linear(in_features=512, out_features=512, bias=True)
          (Wv): Linear(in_features=512, out_features=512, bias=True)
          (attention): ScaledDotProductAttention(
            (dropout): Dropout(p=0.1, inplace=False)
          )
          (dropout): Dropout(p=0.1, inplace=False)
          (project): Linear(in_features=512, out_features=512, bias=True)
          (norm): LayerNorm()
        )
        (FFN): FFN(
          (ffn): Sequential(
            (0): Linear(in_features=512, out_features=2048, bias=True)
            (1): ReLU()
            (2): Dropout(p=0.1, inplace=False)
            (3): Linear(in_features=2048, out_features=512, bias=True)
          )
          (dropout): Dropout(p=0.1, inplace=False)
          (norm): LayerNorm()
        )
      )
      (3): EncoderLayer(
        (enc_MHA): MultiHeadAttention(
          (Wq): Linear(in_features=512, out_features=512, bias=True)
          (Wk): Linear(in_features=512, out_features=512, bias=True)
          (Wv): Linear(in_features=512, out_features=512, bias=True)
          (attention): ScaledDotProductAttention(
            (dropout): Dropout(p=0.1, inplace=False)
          )
          (dropout): Dropout(p=0.1, inplace=False)
          (project): Linear(in_features=512, out_features=512, bias=True)
          (norm): LayerNorm()
        )
        (FFN): FFN(
          (ffn): Sequential(
            (0): Linear(in_features=512, out_features=2048, bias=True)
            (1): ReLU()
            (2): Dropout(p=0.1, inplace=False)
            (3): Linear(in_features=2048, out_features=512, bias=True)
          )
          (dropout): Dropout(p=0.1, inplace=False)
          (norm): LayerNorm()
        )
      )
      (4): EncoderLayer(
        (enc_MHA): MultiHeadAttention(
          (Wq): Linear(in_features=512, out_features=512, bias=True)
          (Wk): Linear(in_features=512, out_features=512, bias=True)
          (Wv): Linear(in_features=512, out_features=512, bias=True)
          (attention): ScaledDotProductAttention(
            (dropout): Dropout(p=0.1, inplace=False)
          )
          (dropout): Dropout(p=0.1, inplace=False)
          (project): Linear(in_features=512, out_features=512, bias=True)
          (norm): LayerNorm()
        )
        (FFN): FFN(
          (ffn): Sequential(
            (0): Linear(in_features=512, out_features=2048, bias=True)
            (1): ReLU()
            (2): Dropout(p=0.1, inplace=False)
            (3): Linear(in_features=2048, out_features=512, bias=True)
          )
          (dropout): Dropout(p=0.1, inplace=False)
          (norm): LayerNorm()
        )
      )
      (5): EncoderLayer(
        (enc_MHA): MultiHeadAttention(
          (Wq): Linear(in_features=512, out_features=512, bias=True)
          (Wk): Linear(in_features=512, out_features=512, bias=True)
          (Wv): Linear(in_features=512, out_features=512, bias=True)
          (attention): ScaledDotProductAttention(
            (dropout): Dropout(p=0.1, inplace=False)
          )
          (dropout): Dropout(p=0.1, inplace=False)
          (project): Linear(in_features=512, out_features=512, bias=True)
          (norm): LayerNorm()
        )
        (FFN): FFN(
          (ffn): Sequential(
            (0): Linear(in_features=512, out_features=2048, bias=True)
            (1): ReLU()
            (2): Dropout(p=0.1, inplace=False)
            (3): Linear(in_features=2048, out_features=512, bias=True)
          )
          (dropout): Dropout(p=0.1, inplace=False)
          (norm): LayerNorm()
        )
      )
    )
  )
  (decoder): Decoder(
    (tgt_emb): Embedding(6870, 512, padding_idx=1)
    (pos_enc): PosEncoding()
    (dropout): Dropout(p=0.1, inplace=False)
    (layers): ModuleList(
      (0): DecoderLayer(
        (dec_MHA): MultiHeadAttention(
          (Wq): Linear(in_features=512, out_features=512, bias=True)
          (Wk): Linear(in_features=512, out_features=512, bias=True)
          (Wv): Linear(in_features=512, out_features=512, bias=True)
          (attention): ScaledDotProductAttention(
            (dropout): Dropout(p=0.1, inplace=False)
          )
          (dropout): Dropout(p=0.1, inplace=False)
          (project): Linear(in_features=512, out_features=512, bias=True)
          (norm): LayerNorm()
        )
        (enc_dec_MHA): MultiHeadAttention(
          (Wq): Linear(in_features=512, out_features=512, bias=True)
          (Wk): Linear(in_features=512, out_features=512, bias=True)
          (Wv): Linear(in_features=512, out_features=512, bias=True)
          (attention): ScaledDotProductAttention(
            (dropout): Dropout(p=0.1, inplace=False)
          )
          (dropout): Dropout(p=0.1, inplace=False)
          (project): Linear(in_features=512, out_features=512, bias=True)
          (norm): LayerNorm()
        )
        (FFN): FFN(
          (ffn): Sequential(
            (0): Linear(in_features=512, out_features=2048, bias=True)
            (1): ReLU()
            (2): Dropout(p=0.1, inplace=False)
            (3): Linear(in_features=2048, out_features=512, bias=True)
          )
          (dropout): Dropout(p=0.1, inplace=False)
          (norm): LayerNorm()
        )
      )
      (1): DecoderLayer(
        (dec_MHA): MultiHeadAttention(
          (Wq): Linear(in_features=512, out_features=512, bias=True)
          (Wk): Linear(in_features=512, out_features=512, bias=True)
          (Wv): Linear(in_features=512, out_features=512, bias=True)
          (attention): ScaledDotProductAttention(
            (dropout): Dropout(p=0.1, inplace=False)
          )
          (dropout): Dropout(p=0.1, inplace=False)
          (project): Linear(in_features=512, out_features=512, bias=True)
          (norm): LayerNorm()
        )
        (enc_dec_MHA): MultiHeadAttention(
          (Wq): Linear(in_features=512, out_features=512, bias=True)
          (Wk): Linear(in_features=512, out_features=512, bias=True)
          (Wv): Linear(in_features=512, out_features=512, bias=True)
          (attention): ScaledDotProductAttention(
            (dropout): Dropout(p=0.1, inplace=False)
          )
          (dropout): Dropout(p=0.1, inplace=False)
          (project): Linear(in_features=512, out_features=512, bias=True)
          (norm): LayerNorm()
        )
        (FFN): FFN(
          (ffn): Sequential(
            (0): Linear(in_features=512, out_features=2048, bias=True)
            (1): ReLU()
            (2): Dropout(p=0.1, inplace=False)
            (3): Linear(in_features=2048, out_features=512, bias=True)
          )
          (dropout): Dropout(p=0.1, inplace=False)
          (norm): LayerNorm()
        )
      )
      (2): DecoderLayer(
        (dec_MHA): MultiHeadAttention(
          (Wq): Linear(in_features=512, out_features=512, bias=True)
          (Wk): Linear(in_features=512, out_features=512, bias=True)
          (Wv): Linear(in_features=512, out_features=512, bias=True)
          (attention): ScaledDotProductAttention(
            (dropout): Dropout(p=0.1, inplace=False)
          )
          (dropout): Dropout(p=0.1, inplace=False)
          (project): Linear(in_features=512, out_features=512, bias=True)
          (norm): LayerNorm()
        )
        (enc_dec_MHA): MultiHeadAttention(
          (Wq): Linear(in_features=512, out_features=512, bias=True)
          (Wk): Linear(in_features=512, out_features=512, bias=True)
          (Wv): Linear(in_features=512, out_features=512, bias=True)
          (attention): ScaledDotProductAttention(
            (dropout): Dropout(p=0.1, inplace=False)
          )
          (dropout): Dropout(p=0.1, inplace=False)
          (project): Linear(in_features=512, out_features=512, bias=True)
          (norm): LayerNorm()
        )
        (FFN): FFN(
          (ffn): Sequential(
            (0): Linear(in_features=512, out_features=2048, bias=True)
            (1): ReLU()
            (2): Dropout(p=0.1, inplace=False)
            (3): Linear(in_features=2048, out_features=512, bias=True)
          )
          (dropout): Dropout(p=0.1, inplace=False)
          (norm): LayerNorm()
        )
      )
      (3): DecoderLayer(
        (dec_MHA): MultiHeadAttention(
          (Wq): Linear(in_features=512, out_features=512, bias=True)
          (Wk): Linear(in_features=512, out_features=512, bias=True)
          (Wv): Linear(in_features=512, out_features=512, bias=True)
          (attention): ScaledDotProductAttention(
            (dropout): Dropout(p=0.1, inplace=False)
          )
          (dropout): Dropout(p=0.1, inplace=False)
          (project): Linear(in_features=512, out_features=512, bias=True)
          (norm): LayerNorm()
        )
        (enc_dec_MHA): MultiHeadAttention(
          (Wq): Linear(in_features=512, out_features=512, bias=True)
          (Wk): Linear(in_features=512, out_features=512, bias=True)
          (Wv): Linear(in_features=512, out_features=512, bias=True)
          (attention): ScaledDotProductAttention(
            (dropout): Dropout(p=0.1, inplace=False)
          )
          (dropout): Dropout(p=0.1, inplace=False)
          (project): Linear(in_features=512, out_features=512, bias=True)
          (norm): LayerNorm()
        )
        (FFN): FFN(
          (ffn): Sequential(
            (0): Linear(in_features=512, out_features=2048, bias=True)
            (1): ReLU()
            (2): Dropout(p=0.1, inplace=False)
            (3): Linear(in_features=2048, out_features=512, bias=True)
          )
          (dropout): Dropout(p=0.1, inplace=False)
          (norm): LayerNorm()
        )
      )
      (4): DecoderLayer(
        (dec_MHA): MultiHeadAttention(
          (Wq): Linear(in_features=512, out_features=512, bias=True)
          (Wk): Linear(in_features=512, out_features=512, bias=True)
          (Wv): Linear(in_features=512, out_features=512, bias=True)
          (attention): ScaledDotProductAttention(
            (dropout): Dropout(p=0.1, inplace=False)
          )
          (dropout): Dropout(p=0.1, inplace=False)
          (project): Linear(in_features=512, out_features=512, bias=True)
          (norm): LayerNorm()
        )
        (enc_dec_MHA): MultiHeadAttention(
          (Wq): Linear(in_features=512, out_features=512, bias=True)
          (Wk): Linear(in_features=512, out_features=512, bias=True)
          (Wv): Linear(in_features=512, out_features=512, bias=True)
          (attention): ScaledDotProductAttention(
            (dropout): Dropout(p=0.1, inplace=False)
          )
          (dropout): Dropout(p=0.1, inplace=False)
          (project): Linear(in_features=512, out_features=512, bias=True)
          (norm): LayerNorm()
        )
        (FFN): FFN(
          (ffn): Sequential(
            (0): Linear(in_features=512, out_features=2048, bias=True)
            (1): ReLU()
            (2): Dropout(p=0.1, inplace=False)
            (3): Linear(in_features=2048, out_features=512, bias=True)
          )
          (dropout): Dropout(p=0.1, inplace=False)
          (norm): LayerNorm()
        )
      )
      (5): DecoderLayer(
        (dec_MHA): MultiHeadAttention(
          (Wq): Linear(in_features=512, out_features=512, bias=True)
          (Wk): Linear(in_features=512, out_features=512, bias=True)
          (Wv): Linear(in_features=512, out_features=512, bias=True)
          (attention): ScaledDotProductAttention(
            (dropout): Dropout(p=0.1, inplace=False)
          )
          (dropout): Dropout(p=0.1, inplace=False)
          (project): Linear(in_features=512, out_features=512, bias=True)
          (norm): LayerNorm()
        )
        (enc_dec_MHA): MultiHeadAttention(
          (Wq): Linear(in_features=512, out_features=512, bias=True)
          (Wk): Linear(in_features=512, out_features=512, bias=True)
          (Wv): Linear(in_features=512, out_features=512, bias=True)
          (attention): ScaledDotProductAttention(
            (dropout): Dropout(p=0.1, inplace=False)
          )
          (dropout): Dropout(p=0.1, inplace=False)
          (project): Linear(in_features=512, out_features=512, bias=True)
          (norm): LayerNorm()
        )
        (FFN): FFN(
          (ffn): Sequential(
            (0): Linear(in_features=512, out_features=2048, bias=True)
            (1): ReLU()
            (2): Dropout(p=0.1, inplace=False)
            (3): Linear(in_features=2048, out_features=512, bias=True)
          )
          (dropout): Dropout(p=0.1, inplace=False)
          (norm): LayerNorm()
        )
      )
    )
  )
  (project): Linear(in_features=512, out_features=6870, bias=False)
)
[2021-06-23 11:53:53,893][train.py][line:267][INFO] ==== Training/Evaluation Parameters: =====
[2021-06-23 11:53:53,894][train.py][line:269][INFO] 	adam_eps=1e-09
[2021-06-23 11:53:53,895][train.py][line:269][INFO] 	batch_size=200
[2021-06-23 11:53:53,896][train.py][line:269][INFO] 	beta1=0.9
[2021-06-23 11:53:53,896][train.py][line:269][INFO] 	beta2=0.98
…
